ml/gesture_model_int8.tflite (tflite, 11104 bytes, 3 tensors)

tfl.pseudo_qconst1 i1 [2, 32]
92 15 96 -16 -100 91 28 -93
-4 91 -102 -50 -127 -5 21 -87
-3 -120 -117 -5 -20 90 -55 -2
-12 7 16 102 72 0 117 -82
123 28 7 6 71 81 -72 -109
91 41 -82 -78 -79 -127 -55 -52
-92 -70 -56 -94 123 72 54 19
106 21 -67 83 -10 -52 125 -73
00000000: 5c0f 60f0 9c5b 1ca3 fc5b 9ace 81fb 15a9
00000010: fd88 8bfb ec5a c9fe f407 1066 4800 75ae
00000020: 7b1c 0706 4751 b893 5b29 aeb2 b181 c9cc
00000030: a4ba c8a2 7b48 3613 6a15 bd53 f6cc 7db7

tfl.pseudo_qconst3 i1 [32, 64]
103 -55 73 54 31 -1 106 -120
18 -41 -23 -21 -41 -71 106 -120
-18 76 53 -33 -106 9 -80 -79
74 69 103 93 64 -97 -28 110
122 34 112 -106 16 32 127 -107
-4 9 -60 45 -72 -68 5 -59
-59 109 91 52 -114 111 106 -108
-118 6 -107 -60 -125 -31 64 23
115 74 51 -33 114 -22 -78 -15
104 37 42 -112 -17 -114 71 -94
106 82 -51 -121 -54 -42 -111 -120
-99 -64 -51 111 111 -23 -72 41
88 -108 -17 70 -9 -120 -115 -68
-66 71 7 115 81 -15 -28 26
24 45 -27 14 102 -119 127 -98
87 -35 44 15 59 -87 -53 49
-54 -36 -121 48 122 -37 8 75
-69 104 110 -59 54 114 -55 74
-102 28 -118 95 58 -69 -51 -55
-127 39 76 21 -80 -32 95 -34
55 -19 -5 -54 -3 78 59 5
-50 87 88 116 -89 -111 -50 -121
-9 114 76 10 -4 -28 64 111
56 -53 -68 -114 117 19 114 -50
108 33 -94 -69 46 38 -13 -126
22 -77 -118 100 23 113 -21 -64
1 -101 65 -28 38 120 -86 -59
-66 -21 -39 -57 68 94 37 56
-28 51 35 87 -54 68 127 -75
-95 -38 75 -91 104 -60 59 99
-74 74 110 -72 -75 -42 54 51
-15 78 -20 0 -36 87 45 -51
00000000: 67c9 4936 1fff 6a88 12d7 e9eb d7b9 6a88
00000010: ee4c 35df 9609 b0b1 4a45 675d 409f e46e
00000020: 7a22 7096 1020 7f95 fc09 c42d b8bc 05c5
00000030: c56d 5b34 8e6f 6a94 8a06 95c4 83e1 4017
00000040: 734a 33df 72ea b2f1 6825 2a90 ef8e 47a2
00000050: 6a52 cd87 cad6 9188 9dc0 cd6f 6fe9 b829
00000060: 5894 ef46 f788 8dbc be47 0773 51f1 e41a
00000070: 182d e50e 6689 7f9e 57dd 2c0f 3ba9 cb31
00000080: cadc 8730 7adb 084b bb68 6ec5 3672 c94a
00000090: 9a1c 8a5f 3abb cdc9 8127 4c15 b0e0 5fde
000000a0: 37ed fbca fd4e 3b05 ce57 5874 a791 ce87
000000b0: f772 4c0a fce4 406f 38cb bc8e 7513 72ce
000000c0: 6c21 a2bb 2e26 f382 16b3 8a64 1771 ebc0
000000d0: 019b 41e4 2678 aac5 beeb d9c7 445e 2538
000000e0: e433 2357 ca44 7fb5 a1da 4ba5 68c4 3b63
000000f0: b64a 6eb8 b5d6 3633 f14e ec00 dc57 2dcd

tfl.pseudo_qconst5 i1 [64, 60]
78 89 -105 122 -13 -85 121 -74
45 -35 -49 -23 -52 96 39 98
60 -112 55 -91 -88 122 110 55
71 -83 58 32 -112 -94 -49 61
71 -17 127 -53 45 53 55 -113
-76 -109 120 -34 65 95 -90 -88
-72 -67 102 64 9 121 1 -109
-22 64 -42 1 -65 4 117 -3
-22 34 102 118 18 68 111 62
-109 8 127 -87 5 6 19 -106
-94 -109 -47 -19 13 18 97 28
112 37 94 -57 -50 -11 -50 -78
122 -101 73 -36 12 -89 -16 -119
11 52 49 125 -69 73 -53 -48
2 -122 0 -62 55 -69 -63 -5
51 117 -103 -81 101 119 20 61
116 2 -95 58 115 -77 -64 41
65 -5 -124 77 -68 -125 -11 -17
-113 -40 2 89 11 -26 -43 -117
-30 -30 -41 -110 -66 -125 35 -55
32 -58 -46 120 100 62 -13 -40
11 27 -75 -106 -127 -97 47 92
-59 71 94 -20 -66 98 105 98
66 -86 33 -10 49 -94 103 80
3 -12 48 -52 51 -24 59 -57
-127 79 89 16 -52 43 48 19
-53 55 4 7 -72 98 -101 -119
24 13 -70 63 110 -49 -94 38
65 14 4 115 -27 -76 -11 -54
-5 -100 51 -116 99 -26 117 85
-111 -100 31 23 -42 -45 -103 93
-103 -115 -97 -7 -21 72 94 12
00000000: 4e59 977a f3ab 79b6 2ddd cfe9 cc60 2762
00000010: 3c90 37a5 a87a 6e37 47ad 3a20 90a2 cf3d
00000020: 47ef 7fcb 2d35 378f b493 78de 415f a6a8
00000030: b8bd 6640 0979 0193 ea40 d601 bf04 75fd
00000040: ea22 6676 1244 6f3e 9308 7fa9 0506 1396
00000050: a293 d1ed 0d12 611c 7025 5ec7 cef5 ceb2
00000060: 7a9b 49dc 0ca7 f089 0b34 317d bb49 cbd0
00000070: 0286 00c2 37bb c1fb 3375 99af 6577 143d
00000080: 7402 a13a 73b3 c029 41fb 844d bc83 f5ef
00000090: 8fd8 0259 0be6 d58b e2e2 d792 be83 23c9
000000a0: 20c6 d278 643e f3d8 0b1b b596 819f 2f5c
000000b0: c547 5eec be62 6962 42aa 21f6 31a2 6750
000000c0: 03f4 30cc 33e8 3bc7 814f 5910 cc2b 3013
000000d0: cb37 0407 b862 9b89 180d ba3f 6ecf a226
000000e0: 410e 0473 e5b4 f5ca fb9c 338c 63e6 7555
000000f0: 919c 1f17 d6d3 995d 998d 9ff9 eb48 5e0c
